app/src/main/ml/soil_analysis.tflite (tflite, 578036 bytes, 10 tensors)

sequential_4/conv2d_16/BiasAdd/ReadVariableOp f4 [10]
00000000: 94d8 963c d7ac 90bc 5be0 8ebb 2cac 3fbb
00000010: 089a aa3c 0456 9a3c 7d68 8ebc 96c6 943c
00000020: 0884 803b 0f0c a23c
0.01841382 -0.017660541 -0.0043602413 -0.002924691 0.020825401 0.018839844 -0.017383808 0.0181611
0.0039219894 0.01978114

sequential_4/conv2d_17/BiasAdd/ReadVariableOp f4 [10]
00000000: 58f2 81bc 800b c13c 384d 263c 4b1c 843c
00000010: 97a1 e53b a5cd 183c e33d 9c3c 3616 d73c
00000020: 226c 9a3c 5613 abbc
-0.015862629 0.023565054 0.010150246 0.016126772 0.0070077884 0.009326373 0.019072479 0.026255708
0.01885039 -0.020883244

sequential_4/conv2d_18/BiasAdd/ReadVariableOp f4 [10]
00000000: c38b 213c 225a 973b 98cc 10bc b1a6 093d
00000010: eb2b 733c f3f9 d9bb 13a6 043c b6aa a0bc
00000020: 55eb a03c c7fe d93c
0.009859982 0.004618899 -0.008837841 0.033606235 0.014842014 -0.0066521107 0.008096236 -0.019612651
0.019643465 0.026610745

sequential_4/conv2d_19/BiasAdd/ReadVariableOp f4 [10]
00000000: ce5a 403c 76f2 863c 96cc 8abc 5dc4 8f3c
00000010: 373d 113d 3e72 e93c bec2 043c bc8d fabb
00000020: a7ff f43a 1105 90bc
0.0117403995 0.016473036 -0.016943257 0.017549688 0.03545877 0.028496858 0.008103071 -0.0076462906
0.0018691913 -0.01758054

sequential_4/conv2d_16/Conv2D f4 [10, 3, 3, 3]
00000000: 8fb3 b5bd 86e1 173e 5b75 12bb 212e 8f3d
00000010: d079 813d 4edf cd3c 998f e2bd 4559 473d
00000020: feac 133e 422a 42be 8d4e d43d 5d0d ffbb
00000030: 7797 85bd 609c 5b3e 7f46 bdbd 69c2 ec3c
00000040: 2f9b 1ebe 2ba0 973d 890c e23d 93af c9bd
00000050: eb4e 953d 4bc0 2e3e fd0c 6abd 6aa5 363e
00000060: 9c98 51be 1f3b a4bd 5309 493e 15a3 1e3d
00000070: fdc4 493e 0cac 06bc 8fd2 03be 0cc8 c5bd
00000080: 6993 1c3d b4e6 1dbd b8e8 b2bc 2a44 47be
00000090: baf0 083e cb05 f63d 202d 44be c6d3 33be
000000a0: 7c25 3bbe 82bd 5d3e 7bfd 2a3e 7cf7 1abd
000000b0: 14a5 a1bd f62a 84bd ddbd 433e 241b 0a3d
000000c0: a00e 653e 2d9e 5ebe c7cf 10bd fe4b 5e3e
000000d0: 3b36 49be d4d4 243e 66f4 953c 279d 4b3c
000000e0: 7750 14be 074d 1dbe d94b 4c3d 8766 19be
000000f0: 2e4e fabd 3589 5b3e d28f 44bd 999d e23d
00000100: ce18 4ebe ae16 abbd d252 6c3e f9c2 d7bd
00000110: 53e7 1abd d60f f9bd e7cd 503d 71b3 50be
00000120: 7f05 f83d 17bf 0cbe 72aa 553d e0ca da3d
00000130: 8097 d2bd 1c72 263d 4523 9bbc 5ae5 603e
00000140: 9a41 7abe 38fd b93d 4355 bd3d cfcf bb3d
00000150: b13e 18bd 3c85 683e 7c26 d8ba 657e 903c
00000160: 892e 0dbe b85d 80bc cb0c 613d b54c 733e
00000170: cb2e b13d 3095 1ebe 449c 043d 2ba4 59be
00000180: 7cd4 2fbd 5f96 353e 8b39 603e 48a5 543e
00000190: b3b4 4b3e f30b 67bd a231 c1bd ff16 4f3e
000001a0: 47d0 2d3e 8297 e43d e906 5abd 3647 343d
000001b0: ec96 a03c ba76 203e 0d0c 5b3e 8ab3 563d
000001c0: 39ab cebc 2ee4 19bd 9437 1dbe 6ce6 92bd
000001d0: 78e0 77be c4eb 4a3c 1da0 6fbd 7dc5 99bd
000001e0: 48cd 15be 6c0a cabd 965d d2bc 2bcf fb3d
000001f0: 6f0c d2bd 9fea 2a3e b933 7cbc af89 d4bd
00000200: e680 523d b194 2a3e 8c3f 09bc 1d1a 9cbd
00000210: dad4 2fbd 5406 b6bd 892d 06be 5317 f6bd
00000220: 807a 01bd 9b31 55be 4fe0 08be 9275 903d
00000230: 477b 0cbe 1e13 033d 6937 373e 712c b33d
00000240: ea7d 88bd 5a74 763d c7f4 e7bd 11c9 c23d
00000250: ca69 07be e32f 223e aee5 503e 2682 05bd
00000260: 9815 1dbe 8da5 8f3d 3cc1 68bd 5ba6 103e
00000270: a13c 993d 3441 0b3e cd9d 08be c716 abbd
00000280: a013 203e 2e9b 19bd 2a9d a73d 4895 5fbe
00000290: b11a 873d 2e9f 103e 363e 663e 3208 743e
000002a0: 8780 283e 0333 643e d048 7fbd 7c3e 3a3d
000002b0: c959 48bb 78c3 493e fc22 88bd 8a1d c7bc
000002c0: 20da da3d f0c3 743e 0549 b53d a446 3e3e
000002d0: 8abc 84bd 198d 69be fb9d 00be 30ad c33d
000002e0: 37d6 51be a0be 5fbe ebb6 cf3d 411b 2e3e
000002f0: 5829 e1bb e94d 5f3c 8b5d 80bc 5a04 743c
00000300: 8cbf 39be 54b9 41be 919f c2bb 207d 0a3e
00000310: 938d efbc da95 09be 022b 14bd 3fb9 d3bd
00000320: 62ea 93bc 5af8 6a3e 174b 973d f66d 183e
00000330: a9b9 603e 8b37 713c 23e7 c4bd c457 5fbd
00000340: 2a59 b53d 163b f33d b320 8f3d c5ab 073e
00000350: 9874 58be 894b 17be dfe5 733e 5e30 52be
00000360: 8071 d0bd cb9a 36be 2aae 6d3e 3c5c 253e
00000370: 6042 bebc d45b e8bd 466d 13bd f38e 44bd
00000380: 2f86 f73d 9e06 c03c f81a dfbd 5321 93bd
00000390: c827 153d c561 96bd 835d f8bd a9fc f33c
000003a0: 0605 19be 1b64 663d 4fbf 1a3b 6560 373e
000003b0: 690e a03d e63c 2abe 48a1 a1bd 9405 263a
000003c0: b9e2 633e 00d1 223e 048f 99bd 14d0 5a3e
000003d0: ad5e 55bc 5d09 2cbb 0617 e7bd 87b8 a9bd
000003e0: 9de1 54bc 2ef9 553e bf1f bd3d 118f 213c
000003f0: e883 4dbe 9c5b be3d cb6f 6abd c975 8bbd
-0.08872139 0.14832124 -0.0022347781 0.0699122 0.06322062 0.025130894 -0.11062545 0.04866912
0.1442146 -0.18961433 0.10366545 -0.0077835754 -0.0652303 0.21446371 -0.09241962 0.028901296
-0.15488885 0.074035965 0.11037547 -0.09847941 0.07290443 0.17065541 -0.057141293 0.17836538
-0.20468372 -0.08019089 0.19632463 0.038729746 0.19704051 -0.00821973 -0.1287329 -0.096572965
0.03822652 -0.038550094 -0.021839485 -0.19459596 0.1337308 0.12012824 -0.19157839 -0.17561254
-0.18276018 0.21654323 0.16698258 -0.037833676 -0.07892814 -0.06453507 0.19115396 0.03371729
0.2236886 -0.21740027 -0.035354402 0.21708676 -0.19649594 0.16096812 0.018305015 0.012427605
-0.1448382 -0.15361415 0.04987702 -0.14980517 -0.12221943 0.21439059 -0.04798872 0.110652156
-0.2012665 -0.08353935 0.23078468 -0.10535235 -0.037818264 -0.121612236 0.050977614 -0.20380951
0.12110423 -0.1374477 0.052164502 0.106832266 -0.102828026 0.040636167 -0.018937716 0.2196249
-0.24439088 0.09081501 0.09244778 0.09170496 -0.037169162 0.22707075 -0.0016490961 0.017638395
-0.13787283 -0.015669689 0.05494384 0.2375973 0.08651503 -0.15486598 0.03237559 -0.21254031
-0.04292725 0.17733143 0.21896951 0.20766175 0.1989315 -0.05640788 -0.09433295 0.20223616
0.16973983 0.1116171 -0.053229246 0.044013225 0.019603215 0.1567029 0.21391316 0.052417316
-0.02522813 -0.037571125 -0.15353233 -0.07172856 -0.24206722 0.0123853125 -0.058502305 -0.07508371
-0.1462909 -0.09865269 -0.02567939 0.122953735 -0.10256278 0.16691063 -0.015393191 -0.103778236
0.05139246 0.16658284 -0.008376967 -0.07622168 -0.0429276 -0.08887926 -0.13103308 -0.120161675
-0.031610966 -0.20819704 -0.13366817 0.07053675 -0.13718902 0.032000653 0.17892231 0.08748711
-0.06664641 0.060169555 -0.113259844 0.095110066 -0.13223949 0.1583858 0.20400116 -0.032594822
-0.15340269 0.07013998 -0.056824908 0.1412596 0.07482267 0.13599092 -0.13341446 -0.08353954
0.15632486 -0.037501507 0.081842735 -0.2183429 0.06596888 0.14123222 0.22484669 0.23831251
0.1645528 0.22285084 -0.0623253 0.045469746 -0.0030571094 0.19703472 -0.06647298 -0.024306078
0.10686135 0.23902869 0.08851818 0.18581635 -0.064812735 -0.2280773 -0.12560265 0.09554517
-0.20491873 -0.21850061 0.10142311 0.17002584 -0.0068713836 0.013629415 -0.015669605 0.014893616
-0.18139476 -0.18918353 -0.005939432 0.13524294 -0.029242313 -0.1343607 -0.036173828 -0.10338067
-0.018056098 0.22946301 0.07387369 0.14885697 0.21945824 0.014722715 -0.09614398 -0.05452706
0.08854897 0.11876504 0.06988659 0.13249119 -0.21138227 -0.14774908 0.23818158 -0.20526263
-0.101778984 -0.17832486 0.2321097 0.16148466 -0.02322501 -0.1134564 -0.035992883 -0.04798789
0.1208614 0.023440655 -0.10893816 -0.071840905 0.03641489 -0.07342867 -0.12127211 0.029783564
-0.14943323 0.05624781 0.0023612564 0.17907865 0.078152485 -0.16624793 -0.0789209 0.00063332287
0.22254457 0.1590004 -0.07497981 0.21368438 -0.013023061 -0.0026250698 -0.11283688 -0.08287149
-0.0129932435 0.20895836 0.09234571 0.00986077 -0.2006985 0.09294817 -0.05723552 -0.06809575

sequential_4/conv2d_17/Conv2D f4 [10, 3, 3, 10]
00000000: cc19 cf3d 2472 863d aed3 583d 08f1 28ba
00000010: 3b47 30be a631 3bbd 78b8 8e3d a2e9 c2bd
00000020: 89c6 10be 31fe 3c3d d54f f83b 2684 d1bd
00000030: 73ac 313d 10ac 263e eb16 843d 3c1b 3d3e
00000040: 849b 63bd 3bd1 32bd 783a 573c 6066 3cbe
00000050: e424 bebd 3caa 35be 6c6d 20be acd5 103e
00000060: f27f f5bc 58fd efbd bb25 94bd b963 493e
00000070: f0b4 05bd 8852 8abd ba6a 8f3d 99b3 0b3e
00000080: 0f18 c5bd 521e b3bd aaf6 2dbe 4de0 3f3e
00000090: 7015 03bd 5e64 f43b 6794 06be 4d78 173e
000000a0: e875 773d 8d6d 2a3d f0ea 0bbe 5162 6f3d
000000b0: cbdf cabd 4b51 e53d d6ae 07be 7fb0 d03d
000000c0: f216 b8bb d696 4c3d 363f d4bd 484b 383e
000000d0: 7e20 163e 4262 04be 6a45 bc3d 3258 5b3d
000000e0: dd0a 01be 0695 713d 7420 3c3d 6c32 b53c
000000f0: 7982 2a3e eed2 da3d 7b6c 7bbd 0f2f c1bd
00000100: cd87 57be 5763 0b3e 63ea fc3d 6276 293e
00000110: e391 923c b79a 88bc 5ba2 99bd 982a da3d
00000120: de1f 26be 6523 c23c f11d c1bc 1cbd 323c
00000130: 88dc 2dbc e370 91bb 88cb 17bd 6f34 b2bd
00000140: 5eb0 353d a9c6 c83d bc77 b73d a88f 63bc
00000150: 4d29 9ebc fd27 ca3d 8aeb 2a3e 87fc 8f3d
00000160: a908 1ebe c8aa fd3d d396 803c 6f32 83bd
00000170: 3a17 f6bd 1a51 223e 31fd 7d3d 53c1 163e
00000180: 0440 bf3d 1933 e73d 695b 3a3e 0cec 343e
00000190: 4cea 1ebe 4166 be3d 84cc ba3d 3710 99bd
000001a0: accf 0abe 2d38 afbd 07d4 253e e9e1 ee3d
000001b0: fc97 f4bd 05ba 7fbd 6bcb 15be 280d c23d
000001c0: 406a a63d d049 30be 1b67 18bd cec4 e43d
000001d0: 12e3 a83d f8ec 5b3d b65e 2c3d b252 143e
000001e0: ec90 9c3c bc35 453c 7561 d4bd 6763 17bc
000001f0: 4436 953d 0643 233e 3c28 e43d 6627 3ebe
00000200: 3020 063d bbe9 bf3c 8781 53bc 96d3 233e
00000210: 8716 0abe eb21 37be 19c6 16be 66af 63bd
00000220: 1474 1a3e 7f03 1f3e e9ac da3d 0845 1c3e
00000230: 5ca9 813d f213 c1bc 77ac 00bd ecae ddbb
00000240: 4589 eabc 3c4b 0d3e 6d96 0fbe 67f7 0c3e
00000250: a1be 893d 514d 13be 96c0 3b3e 49c1 e0bc
00000260: 8b92 103e 9ca8 57bc 5d54 64bd 5a02 403c
00000270: 05d7 37be fa1f 73bd 7726 213e 7aec ac3d
00000280: ab62 0b3d dbaf febd 873e 3dbe 2e49 54bb
00000290: c540 ff3c 5de7 1b3e 9aec 87bd 259b e03d
000002a0: 4164 a1bc be7c a6bd 9c34 253e 10ed 233e
000002b0: ca71 9d3c 4ea6 233e 09d0 8c3d 00a1 0c3d
000002c0: 6402 9b3d d1a5 193d 803c c3bd 131f 333e
000002d0: d961 1abd 9640 14be 9f09 0ebb c89e 64ba
000002e0: 4d5d ffbd e9cc e93d 4529 043e ba71 09be
000002f0: 0427 a1bd 621b 8dbd 1943 de3d b87a 0d3e
00000300: e478 f73d ddda c9bc df4f babd e929 8bbd
00000310: 996d 24bb f049 26bd 52d5 083e 8521 b6bd
00000320: df0d dc3d 0512 afbb d8a4 26be 9b42 b83c
00000330: 109f 28bd 4096 fe3d 39ae 12bc 7b33 d13d
00000340: 2fa0 30bd 8f77 663c 5716 1b3e bd04 3dbe
00000350: 7f56 043e 5eb7 f9bd e1af ea3a ae7d c43c
00000360: 11dc f8bd d7e5 cdbd b6fc 963d e6ec f7bd
00000370: 6de4 a5bd 850b 44be 417c d1bd 9dc7 b0bc
00000380: 43b2 6a3d 6f7f ba3d abc4 26bd e785 bf3d
00000390: c340 dfbd 782b 143e 4bef 373e ce9d 0f3e
000003a0: 4fff 083e ef8f 32be c40e 803d 70f0 28be
000003b0: 2849 bfbc 455a 1b3e 8d40 aebd f09a 223e
000003c0: 009c a93c e831 74bd cc79 323d 226a e73d
000003d0: 578f dc3d 565b 7dbd 9d98 0bbe 92f1 113e
000003e0: 5fc6 87bd ec14 f53d 5dca 8f3d 09fa 91bd
000003f0: 8ac4 01be cc57 083e 3248 12bd ae25 a73d
0.10112342 0.06564739 0.05293625 -0.0006444608 -0.17214672 -0.045701645 0.06968778 -0.09517218
-0.14138235 0.046140853 0.007577876 -0.102302834 0.04337735 0.16276574 0.06449684 0.1846742
-0.055568233 -0.04365657 0.013136499 -0.18398428 -0.0928438 -0.1774072 -0.15666741 0.1414401
-0.029968236 -0.11718243 -0.07233759 0.19666947 -0.03264326 -0.06754023 0.07002778 0.1364273
-0.096237294 -0.087460175 -0.16988626 0.18737908 -0.032002866 0.0074582538 -0.13142549 0.14791985
0.06041518 0.041608382 -0.1366384 0.05844337 -0.09905966 0.11197146 -0.13250288 0.10189914
-0.0056179697 0.049948536 -0.10363619 0.17997468 0.14660832 -0.12928107 0.09192927 0.053550906
-0.126018 0.05898001 0.045929387 0.02211877 0.16651334 0.10684763 -0.061382752 -0.09432804
-0.21047898 0.13612114 0.12349393 0.16549066 0.01789183 -0.016675336 -0.0750167 0.10652655
-0.16223094 0.023698518 -0.023573847 0.010909345 -0.010611661 -0.004438506 -0.037059337 -0.08701407
0.04435765 0.098035164 0.089583844 -0.013889231 -0.019306803 0.098709084 0.16691414 0.07030588
-0.15432991 0.123860896 0.015696919 -0.06406104 -0.12016149 0.1585125 0.06200904 0.14722185
0.09338382 0.11289043 0.18198933 0.1766817 -0.15519065 0.09296847 0.091210395 -0.07473796
-0.13555783 -0.085556366 0.16194163 0.11664183 -0.11943051 -0.06243326 -0.14628379 0.094751656
0.08125734 -0.17215657 -0.037207704 0.1117035 0.08246435 0.053692788 0.04208251 0.14484671
0.019112073 0.012036737 -0.10370151 -0.009240008 0.07285741 0.15943536 0.111404866 -0.18569717
0.03274554 0.023426881 -0.0129093 0.15998682 -0.13485156 -0.17884032 -0.14724006 -0.055587195
0.15083343 0.15528677 0.10677511 0.15260708 0.06331131 -0.023569081 -0.031414475 -0.006765237
-0.028629908 0.13798231 -0.14022227 0.13766252 0.06725813 -0.14384963 0.18335184 -0.027435916
0.14118402 -0.013162758 -0.055744518 0.011719311 -0.17953117 -0.059356667 0.1573733 0.08443542
0.034029644 -0.124358855 -0.18480884 -0.0032392251 0.031158814 0.15224977 -0.06636925 0.109670915
-0.019701125 -0.081292614 0.1613335 0.16008401 0.019219298 0.15981409 0.06875617 0.03433323
0.07568815 0.03751165 -0.09533024 0.17492323 -0.03769097 -0.14477763 -0.0021673215 -0.000872117
-0.124689676 0.11416037 0.12906368 -0.1342229 -0.0786877 -0.068899885 0.108526416 0.13816345
0.12083605 -0.024640495 -0.090972655 -0.06795103 -0.002508974 -0.040597856 0.13362625 -0.08893112
0.10744833 -0.0053427243 -0.1627382 0.022492697 -0.04116732 0.12431002 -0.008952671 0.10214897
-0.043121513 0.014066591 0.1514524 -0.18458839 0.1292362 -0.12193178 0.0017905199 0.02398571
-0.12151349 -0.10053604 0.073724195 -0.12105732 -0.081002094 -0.1914502 -0.10228778 -0.021579558
0.05729891 0.09106337 -0.0407149 0.09351712 -0.10901024 0.14469707 0.17962377 0.14025041
0.13378642 -0.17437719 0.06252816 -0.1649797 -0.023350313 0.15171154 -0.08508406 0.15879416
0.02070427 -0.059617907 0.043573186 0.1129954 0.107695274 -0.061854683 -0.13632436 0.14252308
-0.06629633 0.11966881 0.070210196 -0.071277685 -0.1267263 0.13314742 -0.035713382 0.08161484

sequential_4/conv2d_18/Conv2D f4 [10, 3, 3, 10]
00000000: 11b0 b7bd 3e59 a13d cf00 0ebb edc8 e33d
00000010: 37d7 14be de8d 463d 1cdf 593d bacd 913d
00000020: 5cab 1ebe 3407 03be d251 e4bd 03bf 333e
00000030: 0890 ed3d aeaf cbbd 2be7 7e3b 654a c6bd
00000040: c70c 1d3e 568f 2c3e f124 083d 39bb 463e
00000050: 0c5d bebb 49ea a43d 3ebd 023e d5b8 5abd
00000060: 31a1 d6bd 70e8 0dbd 2e17 a13c 1c45 0cbe
00000070: 04c2 34be a3ab 623d 7ac4 a13c 1de9 b73d
00000080: e46e a5bd 3d22 a73a 9b2d 62bd 4bae 063e
00000090: 8c15 203d 3337 573e 17f6 0bbe 08f0 09be
000000a0: bbc1 02be aa39 88bd 0d01 cabd 107e e63d
000000b0: 06c9 82bd f664 28be cf1b 523e 950f b03d
000000c0: f36e e0bb 50b1 e03d ac2a 103b 7fbb 093e
000000d0: 8288 9ebd 936a 683d 3349 113e 283d 9f3d
000000e0: c9e2 f23b 5fac edbd fedd 17bd 8756 c8bd
000000f0: fd45 2abe 13c1 0fbe fe2a 693d 6445 e2bd
00000100: ba2b 6dbc ea1b 13be bacc 413c 0d1e ed3d
00000110: 5026 013e 694a a43d c067 d9bd f970 a9bd
00000120: c3c9 0f3e 4e61 1e3e 2c5d 7c3d bbb5 4abd
00000130: bf7f 293e 1aa7 f03d eafd 15be 1a88 303e
00000140: d3c2 1dbc f34f 3bbe cc01 333d 7d36 60bd
00000150: eb83 5bbd 911b 163e 1535 3b3d 1276 8fbc
00000160: 3764 33bd ab4e 4fbc 026f 8cbc 7373 aa3d
00000170: f8c9 d03d 4186 ffbd e637 05be 1531 d23d
00000180: 3e50 e4bc 6870 82bd c8f2 d93c 9cba 073e
00000190: f47b 95bc a2d3 f93d a527 483d 8ad3 4ebd
000001a0: 0b52 dabd d3e2 503e 0427 233e 4235 483e
000001b0: fa6a 333e 6f84 253d e6a5 1d3e ac5a 413e
000001c0: cc88 973d 186a a83d 57eb 1a3e 9889 e53a
000001d0: ae48 30be 31cd 37bd 3c5d 2f3d fe5c 1b3d
000001e0: d438 8a3d 8e84 89bc 6d10 233e b23f ba3d
000001f0: a4ea e43d b2f3 543c 40a5 2e3d c09f 353e
00000200: f9f0 04be 0dd8 7cbd d2ec 95bd 73d1 8fbb
00000210: 772b f13d 21fb 8e3d 9c3b 04be 4df1 04bc
00000220: 0afa 233e 9359 0ebe 75d9 85bc be06 d7bd
00000230: 739d a73d db04 373d 197b 2a3e f045 dd3d
00000240: f7a8 273e 78d2 1bbe 3b8f 2f3d d69f 523e
00000250: f076 003e eded 00be 3923 0c3d 907b b7bd
00000260: 70e7 eabd 949e e53d dce5 25be 1850 5d3d
00000270: a41f efbd c5de 1cbd 69b9 e0bd 6c25 c0bd
00000280: c448 fb3c 1c6a a13c d0d6 83bc 5c72 adb8
00000290: b751 043e 3d35 22be 6655 3abd c6f5 be3d
000002a0: e376 25be 0aa1 883c 552c a7bc 0508 b9bd
000002b0: 47e7 aa3d eeac 07be 0e02 91bd a180 44bd
000002c0: 9f2d 95bd 3f89 a7bb a08b 14be 6576 16be
000002d0: b402 9e3d e1bc 283e be86 73bd 86db 113e
000002e0: 77f1 6fbc 09c6 3b3e 00c2 f7bd f092 d7bd
000002f0: fbfd a3bd d87e aabd c1f7 f6bd f082 443e
00000300: de2f 1b3e 4f76 d2bd 9793 c53c d0d3 443e
00000310: f2a5 f8bb 2f70 c93d 53e1 3e3e e081 ffbd
00000320: f568 933c 0119 f03c cbd1 1a3e b294 04be
00000330: bb2d a6bd 393a 94bc 8fac 95bd 1d77 053e
00000340: 35aa 8bbd 7bb7 c7bc 4669 263d 25f4 96bd
00000350: d164 c93d ce34 fd3d 36e6 fcbc d854 25bd
00000360: 7482 35be 0d14 373e 7b74 b13d dab1 333d
00000370: b9d8 433e 9143 fb3d beb6 813d 335a 673e
00000380: ba6f e9bb 8e2f 9f3c ae1c 13bd a9f8 c3bc
00000390: 3964 003e b0ad 9abd bf59 143e 0e49 25be
000003a0: 96ed d3bd aa9e e2bd f8ad 8e3d 1914 053e
000003b0: 01d3 e53d f056 d53c d8d5 6cbd f0c6 193e
000003c0: 54ab 9a3d ca48 82bd 182f 8f3d 00d3 a73d
000003d0: 6aff 84bd 139a 66bb 7af4 073e 2a91 bc3d
000003e0: 8557 d6bd e057 3f3e 2191 453e d6f9 3b3d
000003f0: 83d6 34be f1b1 353e 9fab 2a3d 1f27 243e
-0.08969129 0.0787835 -0.0021667962 0.11122308 -0.14535223 0.04847514 0.05319129 0.07119317
-0.15495056 -0.12795717 -0.111484185 0.17553334 0.115997374 -0.099456176 0.003889511 -0.096821584
0.15336905 0.16851553 0.033238355 0.19407357 -0.005809432 0.08052499 0.12767503 -0.053398926
-0.104799636 -0.034645498 0.019664373 -0.13698238 -0.17652136 0.055339467 0.019747008 0.0898001
-0.08077791 0.0012751293 -0.055219274 0.13152425 0.03908305 0.2101715 -0.13668095 -0.13470471
-0.12769215 -0.066516235 -0.09863482 0.11254513 -0.063859984 -0.16444764 0.2051842 0.08596722
-0.0068491637 0.1097132 0.002199809 0.1345043 -0.077408805 0.056742262 0.1418808 0.077753365
0.007412289 -0.11605143 -0.037076943 -0.09782129 -0.16628261 -0.14038496 0.056925766 -0.110483915
-0.014475757 -0.14366117 0.011828596 0.11577997 0.12612271 0.08022005 -0.10615492 -0.08273501
0.1404181 0.15466806 0.061612293 -0.049489718 0.16552638 0.11750622 -0.14647642 0.17239419
-0.009628969 -0.18292217 0.043702886 -0.054739464 -0.053592604 0.14658953 0.04570492 -0.017512355
-0.043796744 -0.012653033 -0.017142776 0.083228014 0.101947725 -0.12476779 -0.13009605 0.10263268
-0.027870294 -0.06369096 0.026605025 0.1325478 -0.018247582 0.12198569 0.048865933 -0.050494708
-0.1066018 0.20399027 0.15932852 0.19551566 0.17521277 0.0404095 0.15395316 0.18882245
0.07399139 0.08223361 0.15128838 0.001751232 -0.17215225 -0.04487342 0.042813525 0.03793048
0.0674912 -0.01678684 0.15924235 0.0909418 0.11177567 0.012997555 0.042638063 0.17736721
-0.12982549 -0.06172948 -0.073205605 -0.004388982 0.117758684 0.06981493 -0.12913364 -0.008114171
0.16013351 -0.13901357 -0.016339043 -0.10499333 0.08184328 0.044682365 0.1664852 0.10804355
0.16373049 -0.15217006 0.042861205 0.20568785 0.12545371 -0.12590761 0.03421328 -0.089591146
-0.114699244 0.11211887 -0.16200966 0.05403146 -0.11675957 -0.038298387 -0.10972864 -0.09382138
0.030674346 0.019703917 -0.016093642 -8.270584e-05 0.12921797 -0.15840621 -0.0454916 0.09324221
-0.16158633 0.016678352 -0.020406881 -0.09034733 0.08344894 -0.13249561 -0.0708047 -0.047974233
-0.07284092 -0.0051127966 -0.14506388 -0.14693601 0.07715359 0.16478302 -0.059454672 0.14243898
-0.014644972 0.18337263 -0.120975494 -0.10526073 -0.08007427 -0.08324975 -0.12058974 0.19190574
0.15154979 -0.10276472 0.024118228 0.19221425 -0.0075881416 0.098358504 0.18640642 -0.124759436
0.017994383 0.029308798 0.15119092 -0.12947348 -0.08114191 -0.018094169 -0.073083036 0.1303372
-0.06819574 -0.024379482 0.04062774 -0.073707856 0.09833682 0.12363587 -0.030871492 -0.040364116
-0.17725545 0.17878743 0.08664795 0.043870784 0.19125642 0.12268747 0.063336834 0.22593002
-0.0071239145 0.019431856 -0.035916023 -0.023922281 0.12538232 -0.075526595 0.1448736 -0.1614115
-0.1034805 -0.11065419 0.06966776 0.12995948 0.112218864 0.026042432 -0.057821125 0.15017295
0.075522095 -0.0636154 0.06991404 0.08194542 -0.06494029 -0.003518705 0.13276854 0.09207375
-0.10465912 0.18685865 0.19293644 0.04589256 -0.17659955 0.1774366 0.041667577 0.16030549

sequential_4/conv2d_19/Conv2D f4 [10, 3, 3, 10]
00000000: d1b9 f23d a9d2 a63d 9b61 3f3e 145e 6d3d
00000010: a047 dfbd 651a f9ba a8ac 773d b935 dd3d
00000020: 7346 fc3d dcc6 debc 4686 993d f58c 123e
00000030: c723 06be 2411 093e e44b cc3d c2cb 3d3e
00000040: 342c 0ebe 3d5b 16be 7365 2c3e 73e1 f6bc
00000050: d8dd 39bd 590c d03d f3d9 1cbe d4c2 37be
00000060: 011c 0fbe ade1 82bd da52 24bd 326b afbc
00000070: fcb0 22be 78cb cdbd 2640 74bd f516 0d3e
00000080: 4c77 163e 0775 b73d 4f37 abbd 99e0 2ebe
00000090: 0737 693b 13fb e4bd a995 07be 9d77 20be
000000a0: 1c6c 1cbe 88b1 b7bd 581e 0dbd e58c a03c
000000b0: 1e30 5e3c 44a2 31bc 445c 2d3e 0e94 143d
000000c0: 58a5 22bd 975b 213e 1d5d 373e c139 d73c
000000d0: 72f6 c83c b41e edbd 4af5 0a3e 45a4 f03d
000000e0: 59f0 f33d 6140 3ebe a928 0dbe f2dc 113e
000000f0: a603 223e 6997 6d3d 753b 063d 101e 16bb
00000100: 63a1 f33d 917b 103e b707 0ebe 830f a9bd
00000110: 2c82 d0bc 3ed6 bf3d 48da f9bd 61b8 833c
00000120: 1ca0 283e 66e1 38bc 7be1 533d ea6f 5c3d
00000130: 12ec dc3c 0c53 22be f1ba 023e d105 86bc
00000140: 4b9a bd3d 4be5 0cbd e6ef e43c fe85 3c3e
00000150: b0fd b7bd 3a36 063e 56da 03be b725 29be
00000160: 8f5c 3a3e 5c36 313e 3999 ebbc ae52 a63d
00000170: 9dcc 813d f7a4 3f3e fb49 ddbd 08a2 3dbe
00000180: ffb8 893b 75a5 d9bd d758 e53d 55a2 2d3e
00000190: 1e63 a83c 0763 463e 4151 df3d a6ef d03c
000001a0: 281a 773d 4433 d33c 2dda 683d 18ed 51be
000001b0: 6b72 92bd 530b 1cbe e068 f03d dfa5 76bc
000001c0: 0227 c43d 089a a2bd 654a 4b3e a4f8 d23d
000001d0: 5d5c 313e 1220 b6bd 25d6 f5bc b265 0d3e
000001e0: 519e f7bc 22b6 ba3d 1338 c83c 0068 873d
000001f0: ee75 963d 7067 37bd ef76 8dbd c347 51be
00000200: cb76 0abe f363 23be 11b6 493e 8046 a23d
00000210: 0285 bebd 47a2 003e cfd0 9d3d bbef d1bd
00000220: 6fc6 95bd afbb 9bbd 14e5 a53d 6975 dbbd
00000230: 16d9 c73c 635c 58bd a64b aebd 0e77 103b
00000240: 1c8e c63d f69c d13c d427 a13c 8eef 89bd
00000250: e354 c4bd 7dd1 9b3d 38d5 143c 8009 c3b6
00000260: b621 9b3d 19e9 073e 9cdd 5d3e d3ec ca3d
00000270: 25cc bebd 32a8 13be a341 bbbd 6d10 643d
00000280: 1acf 103e 0bf5 873d af99 fcbd 9a00 023e
00000290: a79f 503e f331 e1bc f18d 8c3b 8f5f 45be
000002a0: 8830 073d 074e 043e fcfa e53c a8b2 06be
000002b0: 16a2 2ebe 7b93 06be 60f2 593e 15ef a9bd
000002c0: 4200 a73d 838a 19be 9aa3 d3bc d6b6 4e3d
000002d0: 897a 37be 696b 143d 3fea cc3d fa86 06be
000002e0: 2c1b b2bb d8be d83c 72b9 353e 3636 643d
000002f0: 9b97 cd3d 5f9a febd 9bd5 49be e37f 14be
00000300: b0cf f3bb 8448 01be 95f3 bdbd 1690 3d3e
00000310: d9e1 103e 5f0f 26bd 8432 10be 64b4 15be
00000320: 3ae7 cfbd 03d2 353e 79dc 9a3d b3f4 6d3d
00000330: 2603 4b3c 8eea c9bd b3ce 25be 7d3d 243e
00000340: 8b18 ff3d 939c bbbd 8cfa 1ebe 5583 323e
00000350: a30c cb3d 538c 2cbe 8e55 de3d 0e73 ea3d
00000360: 60c5 093d 1e40 353e b9c7 42be 527d 3c3d
00000370: 3ee5 d8bd 9dbd fc3d ba59 733d 557c 71bd
00000380: 2ded c3bc 93cb 5e3d 7c72 203e 5705 af3d
00000390: f790 d5bd 290f 34be 5fac 07be f853 033e
000003a0: 05af 5cbd 8512 e8bc 1aa1 13be 2439 103e
000003b0: 0f0b f5bd e275 a2bd 8459 bf3c baf0 18be
000003c0: cb8a 373d 5d2a 86bd 649f 42bd 5bcf 2b3e
000003d0: 51da f13c 7af4 133e f6f7 a33c 1251 ef3d
000003e0: 89ea bd3d f1e0 41bd 196b 0d3d bf18 e4bd
000003f0: 51c9 c33d b033 b2bd d9db 25be 7695 3d3e
0.11851848 0.08145649 0.18689577 0.057951048 -0.10902333 -0.0019005059 0.060467392 0.108012624
0.123181246 -0.027194433 0.07496314 0.14311583 -0.13099585 0.13385445 0.099754125 0.18534759
-0.1388405 -0.14683242 0.16835575 -0.0301368 -0.045377582 0.10158605 -0.15317516 -0.17945415
-0.13975526 -0.063907005 -0.040118076 -0.02141342 -0.15887827 -0.10048574 -0.05963149 0.13778289
0.14693946 0.08957868 -0.08360159 -0.17077865 0.0035585777 -0.11180701 -0.13240685 -0.15670629
-0.15275615 -0.08969408 -0.034452766 0.019598434 0.013561277 -0.01084191 0.16929728 0.03627401
-0.039708465 0.15757595 0.17906614 0.026272656 0.024531577 -0.11578122 0.13570133 0.11750082
0.11911077 -0.18579246 -0.13785042 0.1424444 0.15821704 0.058005724 0.032771546 -0.0022906102
0.118960164 0.14109637 -0.1387013 -0.08254912 -0.025452696 0.09367035 -0.12199837 0.01607913
0.16467327 -0.011284208 0.051728707 0.053817667 0.026968036 -0.15851992 0.12766625 -0.016360195
0.09257945 -0.03439836 0.027946424 0.18410489 -0.08983934 0.13106623 -0.12876257 -0.16518293
0.18199371 0.17305893 -0.028759586 0.08121239 0.06337855 0.18715273 -0.10805126 -0.18518841
0.0042029615 -0.106272615 0.111985855 0.16956456 0.020555075 0.19373713 0.1090417 0.025504898
0.06032768 0.025781281 0.056848694 -0.205006 -0.0715073 -0.15238695 0.11738753 -0.015054195
0.09577753 -0.079395354 0.19852598 0.10301331 0.1732039 -0.08892836 -0.030009339 0.13808325
-0.030226858 0.0911677 0.0244408 0.06611633 0.07346712 -0.04477638 -0.069074504 -0.20437531
-0.13521878 -0.15956096 0.19698359 0.07923603 -0.09302713 0.12561904 0.07705843 -0.10250803
-0.07313239 -0.07604157 0.08100334 -0.107157536 0.024395507 -0.05282248 -0.085105225 0.0022043618
0.09695074 0.02558754 0.019672312 -0.067351446 -0.09586503 0.07608316 0.009084038 -5.812559e-06
0.07574789 0.13272513 0.21666569 0.09908452 -0.09316281 -0.1441963 -0.091433786 0.055679727
0.14141503 0.06638535 -0.12334 0.12695542 0.20373403 -0.027489638 0.0042893817 -0.19274734
0.033005267 0.1292039 0.02807378 -0.1315409 -0.17054018 -0.13142197 0.21283865 -0.082975544
0.08154346 -0.14994244 -0.025834847 0.050467335 -0.17917837 0.036235247 0.100056164 -0.13137427
-0.005435368 0.026458189 0.17746523 0.055715762 0.10038682 -0.12431788 -0.1971039 -0.1450191
-0.0074405298 -0.12625319 -0.09274975 0.18511996 0.14148654 -0.040542003 -0.1408177 -0.14619595
-0.10151525 0.17755894 0.07561583 0.05809469 0.012390887 -0.09859191 -0.1619213 0.16039081
0.12455853 -0.091607235 -0.15525264 0.17432912 0.0991452 -0.16850404 0.10856162 0.11447726
0.033635497 0.1770024 -0.190215 0.046017952 -0.105905995 0.12340853 0.05941174 -0.058956463
-0.023916805 0.054393362 0.15668672 0.0854594 -0.104280405 -0.17583908 -0.13249348 0.12825
-0.05387785 -0.028329143 -0.14416924 0.14084297 -0.11965 -0.079326406 0.023358114 -0.1493558
0.044810098 -0.06551049 -0.047515288 0.16778319 0.029523047 0.14448729 0.020015698 0.11685385
0.0927325 -0.04733366 0.034525964 -0.111375324 0.095598824 -0.08701265 -0.16197146 0.18514046

sequential_4/dense_4/BiasAdd/ReadVariableOp f4 [5]
00000000: e831 193b 4e20 813c de9f 4cbc 2cd8 cfba
00000010: 55ad 8abb
0.0023375694 0.015762474 -0.012489287 -0.0015857271 -0.0042320886

sequential_4/dense_4/MatMul f4 [5, 28090]
00000000: 19e5 fdbc e35a fb3b ec47 863c dfaa 91bc
00000010: 1317 fabc cd06 6dbb 3f21 db3a dd2d c73c
00000020: 35fc ab3c 87b4 a5bb ab14 74bc ab0f df3a
00000030: b02f b43a 2bb8 a53b b0da b0bc 4baa c9bc
00000040: 8d27 1fbc 98fe 39ba 5fc6 8d3c 5a8b 383c
00000050: d404 bebc 1636 87bc f3da 353c f255 10bc
00000060: 742a f7bc ec95 dc3c 0fcd d4bc 74ed 973c
00000070: a338 a83c 6a33 ad3b 2ad1 0dbc 2a00 8bbc
00000080: f878 483b daef 8dbc cb5b 9ebc d53b fbbb
00000090: 1356 733b efce d3bb c0f0 16bc c334 d5bb
000000a0: 4fb3 b4bc 2277 bc3b 5c48 f33b d129 05bc
000000b0: 1329 1abd b290 75bc a123 32bc 603a e93b
000000c0: 156b abbb 6bdf 733c ac2d ccbc b477 bfbc
000000d0: ac9f 983c a8ec f4ba 9bec 17bd a31f 80bc
000000e0: 8d4a 273a 1bb7 7f3a 146b 1c3c 12be 743c
000000f0: 62b6 60bc e214 f63b cfb5 a2ba e74d c3bb
00000100: beba d3bb 7cad 673c 2235 14bd 909e 0b3c
00000110: b8af b13c 60a1 36bb 0e3d b9b8 2509 a2ba
00000120: 43bb 263c 6c7e 2dbb 0206 cf3c a6f1 80bc
00000130: c20d 90bc 3ce9 463c 079d 5fbb b1c2 163b
00000140: 5a61 b4bc a426 18bb 2893 4dbb fb99 e2bb
00000150: 169c 453b ca00 11bd 46ec 75bb fc7b 2cbc
00000160: 9680 c0bb 1df0 49ba 7f1f b2bb 00d9 0cba
00000170: 4eb8 cebb 5a7f 14bc e303 afbb 19f8 3e3c
00000180: caa2 35bb 0408 41bc a122 933c 8edf ebbb
00000190: 5272 9b3a ba3a 6bbc 1675 18bb 34f1 09bc
000001a0: 5b46 09bc ee16 0bbc 41dd e8bb a0b0 e1bb
000001b0: ffb4 ca3b 4910 41bc 86ec a1bc e751 35bc
000001c0: 58db e9bb 65eb 7ebb 8703 acbc 2ded ea3b
000001d0: cede 75bc 26d5 a03b d28f c9ba 7d88 b6bb
000001e0: b6df ddbc 1ed6 4cbc 882a d5bb 345a 3dbc
000001f0: 3e5e 46bc 790e 8dbc 6cf8 273b 51b5 213b
00000200: e439 65bc 4dd4 a0bb 8d1f d8bc e683 febb
00000210: 22f2 b3bb 2115 44bc a349 d8bc 2776 0e3c
00000220: 472c 18bc 649d 8e3b c387 07bc 1515 bbbc
00000230: 8d02 03bd 6ec1 bdb9 f18f 2d3c 4b86 2cbc
00000240: 94e5 e5bc 1639 873b 97a0 77bb eb0e 983b
00000250: 8b15 7d3c 044b 79bc bd21 0ebd 7f72 77bc
00000260: 1653 e8bb 00c1 92bb a5c3 81bc 509f fd37
00000270: fb4d a3ba 9059 19bc eade ffb8 ead0 5bbc
00000280: 6433 b1bc 6bc8 43bc 0139 f13b 3107 4ebc
00000290: 7052 dabc 6044 c43c cc74 79bc 8062 41bb
000002a0: 870c 893b 93a3 fabc 4450 25bc 4d7e dcbb
000002b0: a8a3 c5bb 75e6 e33a 7167 33bc 67bf bc3c
000002c0: 227f d1bc 5b25 9c3b 48fb 97b9 1921 80bc
000002d0: 93f7 f8ba 8dce 43bc 068e fabb c03c 483b
000002e0: 48ff a6bb 6d0c a13c 644e 8dbb 8cac 713b
000002f0: 10de fcb8 bd99 88bc e28d 0ebd b3ea e53b
00000300: fb74 4eba 42cb 1a3c cbcb 40bb 9cae b73c
00000310: ab2f 66bb b713 473b deba 15bc a65c 7abc
00000320: 24b6 84bc 2408 c7ba 7292 f1bb 47cb 8abc
00000330: 9a28 27bd a2cc f4bc bdde 64bb d7b7 4ebc
00000340: eca1 173c 1872 03bc f48f d7bc 0f20 8abc
00000350: f112 703c c9bc ac3b 97b9 28bc fffd 8dbb
00000360: 7d03 1dbc 8cbf 4f3b dc07 ee3b fe6c 003c
00000370: 9085 5dbc 0659 87b8 d1d6 cb3b 189c 42bc
00000380: bd41 ffbc 3141 83bc f39a 2fbb 76e8 b6bb
00000390: ca00 ae3b b1c4 d83b ad9f 83bc be86 593a
000003a0: 5a7e 01bc d50e d43b e92d 43bc 6a7a 3dbc
000003b0: 562c e6bc 5418 c9bb 44e9 463c ebf7 28ba
000003c0: a3b5 43bd 31a5 03bb 57cb a23c 0139 0abc
000003d0: 94f0 85bc ff6c 9bbc 1a3d 7abc 7580 43bc
000003e0: 7102 d43a 12a1 843c 2999 9ebc 8e19 30bc
000003f0: 2026 683c 0513 7a3c 2a36 35bc e49a cbbb
-0.030993031 0.0076707467 0.016391717 -0.017781673 -0.03052858 -0.0036167384 0.0016718282 0.024313862
0.020994285 -0.005056921 -0.014897506 0.0017018219 0.0013747122 0.005057355 -0.021588653 -0.024617335
-0.0097140195 -0.00070951274 0.017306505 0.011263693 -0.023195662 -0.016505282 0.011099565 -0.008809553
-0.03017161 0.026926957 -0.025976686 0.018545844 0.020534819 0.00528567 -0.008655826 -0.016967852
0.003058968 -0.017326284 -0.01933088 -0.0076670446 0.0037130162 -0.0064638774 -0.009212673 -0.006506534
-0.022058157 0.0057515064 0.0074243974 -0.008127646 -0.037636828 -0.014988111 -0.010872752 0.0071175545
-0.005231271 0.01488481 -0.024924122 -0.023372509 0.018630825 -0.0018686252 -0.03709088 -0.015640086
0.00063816534 0.0009754763 0.009547014 0.014937894 -0.013715358 0.0075098136 -0.0012413802 -0.0059602144
-0.0064614704 0.014140483 -0.036183484 0.008521691 0.021690235 -0.0027867183 -8.83286e-05 -0.0012362344
0.010176483 -0.0026473058 0.02527142 -0.015740227 -0.017584685 0.012140568 -0.0034120695 0.0023004229
-0.022019077 -0.002321639 -0.003136823 -0.0069153286 0.003015285 -0.035401143 -0.0037524863 -0.010527607
-0.0058747036 -0.0007703321 -0.0054358835 -0.00053729117 -0.006308592 -0.009063566 -0.0053410395 0.011655831
-0.0027715438 -0.011781696 0.017960848 -0.0071982807 0.0011859632 -0.014357263 -0.0023263148 -0.008419324
-0.00837859 -0.008489354 -0.0071064536 -0.0068875104 0.006186127 -0.011783668 -0.019766103 -0.01106689
-0.0071367435 -0.003889763 -0.020997776 0.007169387 -0.015006734 0.004908222 -0.0015377945 -0.00557047
-0.027084213 -0.012502221 -0.0065053143 -0.011557151 -0.01210743 -0.017218815 0.0025630249 0.0024674723
-0.013990853 -0.0049081207 -0.026382232 -0.0077671884 -0.005491511 -0.011967928 -0.0264023 0.008695162
-0.0092879 0.0043522585 -0.008272114 -0.022837201 -0.031984854 -0.00036193006 0.0105934 -0.010530065
-0.028063573 0.004126678 -0.0037784928 0.0046404502 0.015447031 -0.015215639 -0.034700144 -0.015102982
-0.0070899827 -0.004478574 -0.01584036 3.0234136e-05 -0.0012459153 -0.009359732 -0.000122008685 -0.013416508
-0.02163095 -0.011949639 0.0073615317 -0.012574957 -0.026650637 0.023958385 -0.0152256 -0.0029508173
0.0041824016 -0.030595576 -0.010089938 -0.0067289234 -0.0060314722 0.0017387407 -0.010949955 0.023040486
-0.025573317 0.0047651953 -0.00028988183 -0.015640782 -0.0018994681 -0.011951101 -0.007646325 0.0030553788
-0.00509635 0.019659245 -0.0043123234 0.0036876528 -0.00012057659 -0.01667487 -0.03480328 0.0070165037
-0.0007875708 0.0094478745 -0.0029418345 0.022422127 -0.0035123627 0.0030376741 -0.009138791 -0.015280878
-0.016200133 -0.0015184921 -0.007372194 -0.016942633 -0.040810205 -0.029882733 -0.0034922801 -0.012617073
0.009254914 -0.008022808 -0.02631376 -0.01686099 0.0146529535 0.0052715284 -0.010298154 -0.004333257
-0.009583351 0.0031699864 0.0072641205 0.007838486 -0.013520613 -6.4538835e-05 0.0062206765 -0.011878036
-0.031159276 -0.016022297 -0.0026795238 -0.0055819107 0.0053101527 0.0066152443 -0.01606735 0.0008297971
-0.00790366 0.0064714947 -0.011912801 -0.01156483 -0.028097313 -0.0061369333 0.012140576 -0.0006445634
-0.047780644 -0.0020087475 0.01987235 -0.008436442 -0.016350068 -0.018972872 -0.015273357 -0.011932482
0.0016175044 0.016190086 -0.019360142 -0.01074828 0.014169246 0.015263324 -0.011060277 -0.0062135328
